{"class_name": "Model", "keras_version": "2.2.4", "config": {"layers": [{"class_name": "InputLayer", "config": {"dtype": "float32", "batch_input_shape": [null, null, null, 3], "name": "input_1", "sparse": false}, "inbound_nodes": [], "name": "input_1"}, {"class_name": "Conv2D", "config": {"kernel_constraint": null, "kernel_initializer": {"class_name": "VarianceScaling", "config": {"distribution": "normal", "scale": 1.0, "seed": null, "mode": "fan_avg"}}, "name": "Convolution1", "bias_regularizer": null, "bias_constraint": null, "activation": "linear", "trainable": true, "data_format": "channels_last", "padding": "same", "strides": [2, 2], "dilation_rate": [1, 1], "kernel_regularizer": null, "filters": 64, "bias_initializer": {"class_name": "Constant", "config": {"value": 0}}, "use_bias": false, "activity_regularizer": null, "kernel_size": [3, 3]}, "inbound_nodes": [[["input_1", 0, 0, {}]]], "name": "Convolution1"}, {"class_name": "BatchNormalization", "config": {"beta_constraint": null, "gamma_initializer": {"class_name": "Ones", "config": {}}, "moving_mean_initializer": {"class_name": "Zeros", "config": {}}, "name": "BatchNorm1", "epsilon": 0.001, "trainable": true, "moving_variance_initializer": {"class_name": "Ones", "config": {}}, "beta_initializer": {"class_name": "Zeros", "config": {}}, "scale": true, "axis": -1, "gamma_constraint": null, "gamma_regularizer": null, "beta_regularizer": null, "momentum": 0.99, "center": true}, "inbound_nodes": [[["Convolution1", 0, 0, {}]]], "name": "BatchNorm1"}, {"class_name": "Activation", "config": {"activation": "relu", "trainable": true, "name": "ReLU1"}, "inbound_nodes": [[["BatchNorm1", 0, 0, {}]]], "name": "ReLU1"}, {"class_name": "Conv2D", "config": {"kernel_constraint": null, "kernel_initializer": {"class_name": "VarianceScaling", "config": {"distribution": "normal", "scale": 1.0, "seed": null, "mode": "fan_avg"}}, "name": "Convolution2", "bias_regularizer": null, "bias_constraint": null, "activation": "linear", "trainable": true, "data_format": "channels_last", "padding": "valid", "strides": [1, 1], "dilation_rate": [1, 1], "kernel_regularizer": null, "filters": 64, "bias_initializer": {"class_name": "Constant", "config": {"value": 0}}, "use_bias": false, "activity_regularizer": null, "kernel_size": [1, 1]}, "inbound_nodes": [[["ReLU1", 0, 0, {}]]], "name": "Convolution2"}, {"class_name": "DepthwiseConv2D", "config": {"use_bias": false, "trainable": true, "name": "ConvolutionDepthwise1", "bias_regularizer": null, "bias_constraint": null, "activation": "linear", "depth_multiplier": 1, "depthwise_constraint": null, "data_format": "channels_last", "padding": "same", "strides": [1, 1], "dilation_rate": [1, 1], "depthwise_initializer": {"class_name": "VarianceScaling", "config": {"distribution": "normal", "scale": 1.0, "seed": null, "mode": "fan_avg"}}, "bias_initializer": {"class_name": "Constant", "config": {"value": 0}}, "depthwise_regularizer": null, "activity_regularizer": null, "kernel_size": [3, 3]}, "inbound_nodes": [[["Convolution2", 0, 0, {}]]], "name": "ConvolutionDepthwise1"}, {"class_name": "BatchNormalization", "config": {"beta_constraint": null, "gamma_initializer": {"class_name": "Ones", "config": {}}, "moving_mean_initializer": {"class_name": "Zeros", "config": {}}, "name": "BatchNorm2", "epsilon": 0.001, "trainable": true, "moving_variance_initializer": {"class_name": "Ones", "config": {}}, "beta_initializer": {"class_name": "Zeros", "config": {}}, "scale": true, "axis": -1, "gamma_constraint": null, "gamma_regularizer": null, "beta_regularizer": null, "momentum": 0.99, "center": true}, "inbound_nodes": [[["ConvolutionDepthwise1", 0, 0, {}]]], "name": "BatchNorm2"}, {"class_name": "Activation", "config": {"activation": "relu", "trainable": true, "name": "ReLU2"}, "inbound_nodes": [[["BatchNorm2", 0, 0, {}]]], "name": "ReLU2"}, {"class_name": "Conv2D", "config": {"kernel_constraint": null, "kernel_initializer": {"class_name": "VarianceScaling", "config": {"distribution": "normal", "scale": 1.0, "seed": null, "mode": "fan_avg"}}, "name": "Convolution3", "bias_regularizer": null, "bias_constraint": null, "activation": "linear", "trainable": true, "data_format": "channels_last", "padding": "valid", "strides": [1, 1], "dilation_rate": [1, 1], "kernel_regularizer": null, "filters": 128, "bias_initializer": {"class_name": "Constant", "config": {"value": 0}}, "use_bias": false, "activity_regularizer": null, "kernel_size": [1, 1]}, "inbound_nodes": [[["ReLU2", 0, 0, {}]]], "name": "Convolution3"}, {"class_name": "DepthwiseConv2D", "config": {"use_bias": false, "trainable": true, "name": "ConvolutionDepthwise2", "bias_regularizer": null, "bias_constraint": null, "activation": "linear", "depth_multiplier": 1, "depthwise_constraint": null, "data_format": "channels_last", "padding": "same", "strides": [1, 1], "dilation_rate": [1, 1], "depthwise_initializer": {"class_name": "VarianceScaling", "config": {"distribution": "normal", "scale": 1.0, "seed": null, "mode": "fan_avg"}}, "bias_initializer": {"class_name": "Constant", "config": {"value": 0}}, "depthwise_regularizer": null, "activity_regularizer": null, "kernel_size": [3, 3]}, "inbound_nodes": [[["Convolution3", 0, 0, {}]]], "name": "ConvolutionDepthwise2"}, {"class_name": "BatchNormalization", "config": {"beta_constraint": null, "gamma_initializer": {"class_name": "Ones", "config": {}}, "moving_mean_initializer": {"class_name": "Zeros", "config": {}}, "name": "BatchNorm3", "epsilon": 0.001, "trainable": true, "moving_variance_initializer": {"class_name": "Ones", "config": {}}, "beta_initializer": {"class_name": "Zeros", "config": {}}, "scale": true, "axis": -1, "gamma_constraint": null, "gamma_regularizer": null, "beta_regularizer": null, "momentum": 0.99, "center": true}, "inbound_nodes": [[["ConvolutionDepthwise2", 0, 0, {}]]], "name": "BatchNorm3"}, {"class_name": "Activation", "config": {"activation": "relu", "trainable": true, "name": "ReLU3"}, "inbound_nodes": [[["BatchNorm3", 0, 0, {}]]], "name": "ReLU3"}, {"class_name": "MaxPooling2D", "config": {"name": "Pooling1", "trainable": true, "data_format": "channels_last", "pool_size": [2, 2], "padding": "same", "strides": [2, 2]}, "inbound_nodes": [[["ReLU3", 0, 0, {}]]], "name": "Pooling1"}, {"class_name": "Conv2D", "config": {"kernel_constraint": null, "kernel_initializer": {"class_name": "VarianceScaling", "config": {"distribution": "normal", "scale": 1.0, "seed": null, "mode": "fan_avg"}}, "name": "Convolution4", "bias_regularizer": null, "bias_constraint": null, "activation": "linear", "trainable": true, "data_format": "channels_last", "padding": "valid", "strides": [1, 1], "dilation_rate": [1, 1], "kernel_regularizer": null, "filters": 32, "bias_initializer": {"class_name": "Constant", "config": {"value": 0}}, "use_bias": false, "activity_regularizer": null, "kernel_size": [1, 1]}, "inbound_nodes": [[["Pooling1", 0, 0, {}]]], "name": "Convolution4"}, {"class_name": "BatchNormalization", "config": {"beta_constraint": null, "gamma_initializer": {"class_name": "Ones", "config": {}}, "moving_mean_initializer": {"class_name": "Zeros", "config": {}}, "name": "BatchNorm4", "epsilon": 0.001, "trainable": true, "moving_variance_initializer": {"class_name": "Ones", "config": {}}, "beta_initializer": {"class_name": "Zeros", "config": {}}, "scale": true, "axis": -1, "gamma_constraint": null, "gamma_regularizer": null, "beta_regularizer": null, "momentum": 0.99, "center": true}, "inbound_nodes": [[["Convolution4", 0, 0, {}]]], "name": "BatchNorm4"}, {"class_name": "DepthwiseConv2D", "config": {"use_bias": false, "trainable": true, "name": "ConvolutionDepthwise3", "bias_regularizer": null, "bias_constraint": null, "activation": "linear", "depth_multiplier": 1, "depthwise_constraint": null, "data_format": "channels_last", "padding": "same", "strides": [1, 1], "dilation_rate": [1, 1], "depthwise_initializer": {"class_name": "VarianceScaling", "config": {"distribution": "normal", "scale": 1.0, "seed": null, "mode": "fan_avg"}}, "bias_initializer": {"class_name": "Constant", "config": {"value": 0}}, "depthwise_regularizer": null, "activity_regularizer": null, "kernel_size": [3, 3]}, "inbound_nodes": [[["BatchNorm4", 0, 0, {}]]], "name": "ConvolutionDepthwise3"}, {"class_name": "BatchNormalization", "config": {"beta_constraint": null, "gamma_initializer": {"class_name": "Ones", "config": {}}, "moving_mean_initializer": {"class_name": "Zeros", "config": {}}, "name": "BatchNorm5", "epsilon": 0.001, "trainable": true, "moving_variance_initializer": {"class_name": "Ones", "config": {}}, "beta_initializer": {"class_name": "Zeros", "config": {}}, "scale": true, "axis": -1, "gamma_constraint": null, "gamma_regularizer": null, "beta_regularizer": null, "momentum": 0.99, "center": true}, "inbound_nodes": [[["ConvolutionDepthwise3", 0, 0, {}]]], "name": "BatchNorm5"}, {"class_name": "Activation", "config": {"activation": "relu", "trainable": true, "name": "ReLU4"}, "inbound_nodes": [[["BatchNorm5", 0, 0, {}]]], "name": "ReLU4"}, {"class_name": "Concatenate", "config": {"trainable": true, "name": "Concat1", "axis": -1}, "inbound_nodes": [[["Pooling1", 0, 0, {}], ["ReLU4", 0, 0, {}]]], "name": "Concat1"}, {"class_name": "Conv2D", "config": {"kernel_constraint": null, "kernel_initializer": {"class_name": "VarianceScaling", "config": {"distribution": "normal", "scale": 1.0, "seed": null, "mode": "fan_avg"}}, "name": "Convolution5", "bias_regularizer": null, "bias_constraint": null, "activation": "linear", "trainable": true, "data_format": "channels_last", "padding": "valid", "strides": [1, 1], "dilation_rate": [1, 1], "kernel_regularizer": null, "filters": 32, "bias_initializer": {"class_name": "Constant", "config": {"value": 0}}, "use_bias": false, "activity_regularizer": null, "kernel_size": [1, 1]}, "inbound_nodes": [[["Concat1", 0, 0, {}]]], "name": "Convolution5"}, {"class_name": "BatchNormalization", "config": {"beta_constraint": null, "gamma_initializer": {"class_name": "Ones", "config": {}}, "moving_mean_initializer": {"class_name": "Zeros", "config": {}}, "name": "BatchNorm6", "epsilon": 0.001, "trainable": true, "moving_variance_initializer": {"class_name": "Ones", "config": {}}, "beta_initializer": {"class_name": "Zeros", "config": {}}, "scale": true, "axis": -1, "gamma_constraint": null, "gamma_regularizer": null, "beta_regularizer": null, "momentum": 0.99, "center": true}, "inbound_nodes": [[["Convolution5", 0, 0, {}]]], "name": "BatchNorm6"}, {"class_name": "DepthwiseConv2D", "config": {"use_bias": false, "trainable": true, "name": "ConvolutionDepthwise4", "bias_regularizer": null, "bias_constraint": null, "activation": "linear", "depth_multiplier": 1, "depthwise_constraint": null, "data_format": "channels_last", "padding": "same", "strides": [1, 1], "dilation_rate": [1, 1], "depthwise_initializer": {"class_name": "VarianceScaling", "config": {"distribution": "normal", "scale": 1.0, "seed": null, "mode": "fan_avg"}}, "bias_initializer": {"class_name": "Constant", "config": {"value": 0}}, "depthwise_regularizer": null, "activity_regularizer": null, "kernel_size": [3, 3]}, "inbound_nodes": [[["BatchNorm6", 0, 0, {}]]], "name": "ConvolutionDepthwise4"}, {"class_name": "BatchNormalization", "config": {"beta_constraint": null, "gamma_initializer": {"class_name": "Ones", "config": {}}, "moving_mean_initializer": {"class_name": "Zeros", "config": {}}, "name": "BatchNorm7", "epsilon": 0.001, "trainable": true, "moving_variance_initializer": {"class_name": "Ones", "config": {}}, "beta_initializer": {"class_name": "Zeros", "config": {}}, "scale": true, "axis": -1, "gamma_constraint": null, "gamma_regularizer": null, "beta_regularizer": null, "momentum": 0.99, "center": true}, "inbound_nodes": [[["ConvolutionDepthwise4", 0, 0, {}]]], "name": "BatchNorm7"}, {"class_name": "Activation", "config": {"activation": "relu", "trainable": true, "name": "ReLU5"}, "inbound_nodes": [[["BatchNorm7", 0, 0, {}]]], "name": "ReLU5"}, {"class_name": "Concatenate", "config": {"trainable": true, "name": "Concat2", "axis": -1}, "inbound_nodes": [[["Concat1", 0, 0, {}], ["ReLU5", 0, 0, {}]]], "name": "Concat2"}, {"class_name": "Conv2D", "config": {"kernel_constraint": null, "kernel_initializer": {"class_name": "VarianceScaling", "config": {"distribution": "normal", "scale": 1.0, "seed": null, "mode": "fan_avg"}}, "name": "Convolution6", "bias_regularizer": null, "bias_constraint": null, "activation": "linear", "trainable": true, "data_format": "channels_last", "padding": "valid", "strides": [1, 1], "dilation_rate": [1, 1], "kernel_regularizer": null, "filters": 32, "bias_initializer": {"class_name": "Constant", "config": {"value": 0}}, "use_bias": false, "activity_regularizer": null, "kernel_size": [1, 1]}, "inbound_nodes": [[["Concat2", 0, 0, {}]]], "name": "Convolution6"}, {"class_name": "BatchNormalization", "config": {"beta_constraint": null, "gamma_initializer": {"class_name": "Ones", "config": {}}, "moving_mean_initializer": {"class_name": "Zeros", "config": {}}, "name": "BatchNorm8", "epsilon": 0.001, "trainable": true, "moving_variance_initializer": {"class_name": "Ones", "config": {}}, "beta_initializer": {"class_name": "Zeros", "config": {}}, "scale": true, "axis": -1, "gamma_constraint": null, "gamma_regularizer": null, "beta_regularizer": null, "momentum": 0.99, "center": true}, "inbound_nodes": [[["Convolution6", 0, 0, {}]]], "name": "BatchNorm8"}, {"class_name": "DepthwiseConv2D", "config": {"use_bias": false, "trainable": true, "name": "ConvolutionDepthwise5", "bias_regularizer": null, "bias_constraint": null, "activation": "linear", "depth_multiplier": 1, "depthwise_constraint": null, "data_format": "channels_last", "padding": "same", "strides": [1, 1], "dilation_rate": [1, 1], "depthwise_initializer": {"class_name": "VarianceScaling", "config": {"distribution": "normal", "scale": 1.0, "seed": null, "mode": "fan_avg"}}, "bias_initializer": {"class_name": "Constant", "config": {"value": 0}}, "depthwise_regularizer": null, "activity_regularizer": null, "kernel_size": [3, 3]}, "inbound_nodes": [[["BatchNorm8", 0, 0, {}]]], "name": "ConvolutionDepthwise5"}, {"class_name": "BatchNormalization", "config": {"beta_constraint": null, "gamma_initializer": {"class_name": "Ones", "config": {}}, "moving_mean_initializer": {"class_name": "Zeros", "config": {}}, "name": "BatchNorm9", "epsilon": 0.001, "trainable": true, "moving_variance_initializer": {"class_name": "Ones", "config": {}}, "beta_initializer": {"class_name": "Zeros", "config": {}}, "scale": true, "axis": -1, "gamma_constraint": null, "gamma_regularizer": null, "beta_regularizer": null, "momentum": 0.99, "center": true}, "inbound_nodes": [[["ConvolutionDepthwise5", 0, 0, {}]]], "name": "BatchNorm9"}, {"class_name": "Activation", "config": {"activation": "relu", "trainable": true, "name": "ReLU6"}, "inbound_nodes": [[["BatchNorm9", 0, 0, {}]]], "name": "ReLU6"}, {"class_name": "Concatenate", "config": {"trainable": true, "name": "Concat3", "axis": -1}, "inbound_nodes": [[["Concat2", 0, 0, {}], ["ReLU6", 0, 0, {}]]], "name": "Concat3"}, {"class_name": "Conv2D", "config": {"kernel_constraint": null, "kernel_initializer": {"class_name": "VarianceScaling", "config": {"distribution": "normal", "scale": 1.0, "seed": null, "mode": "fan_avg"}}, "name": "Convolution7", "bias_regularizer": null, "bias_constraint": null, "activation": "linear", "trainable": true, "data_format": "channels_last", "padding": "valid", "strides": [1, 1], "dilation_rate": [1, 1], "kernel_regularizer": null, "filters": 32, "bias_initializer": {"class_name": "Constant", "config": {"value": 0}}, "use_bias": false, "activity_regularizer": null, "kernel_size": [1, 1]}, "inbound_nodes": [[["Concat3", 0, 0, {}]]], "name": "Convolution7"}, {"class_name": "BatchNormalization", "config": {"beta_constraint": null, "gamma_initializer": {"class_name": "Ones", "config": {}}, "moving_mean_initializer": {"class_name": "Zeros", "config": {}}, "name": "BatchNorm10", "epsilon": 0.001, "trainable": true, "moving_variance_initializer": {"class_name": "Ones", "config": {}}, "beta_initializer": {"class_name": "Zeros", "config": {}}, "scale": true, "axis": -1, "gamma_constraint": null, "gamma_regularizer": null, "beta_regularizer": null, "momentum": 0.99, "center": true}, "inbound_nodes": [[["Convolution7", 0, 0, {}]]], "name": "BatchNorm10"}, {"class_name": "DepthwiseConv2D", "config": {"use_bias": false, "trainable": true, "name": "ConvolutionDepthwise6", "bias_regularizer": null, "bias_constraint": null, "activation": "linear", "depth_multiplier": 1, "depthwise_constraint": null, "data_format": "channels_last", "padding": "same", "strides": [1, 1], "dilation_rate": [1, 1], "depthwise_initializer": {"class_name": "VarianceScaling", "config": {"distribution": "normal", "scale": 1.0, "seed": null, "mode": "fan_avg"}}, "bias_initializer": {"class_name": "Constant", "config": {"value": 0}}, "depthwise_regularizer": null, "activity_regularizer": null, "kernel_size": [3, 3]}, "inbound_nodes": [[["BatchNorm10", 0, 0, {}]]], "name": "ConvolutionDepthwise6"}, {"class_name": "BatchNormalization", "config": {"beta_constraint": null, "gamma_initializer": {"class_name": "Ones", "config": {}}, "moving_mean_initializer": {"class_name": "Zeros", "config": {}}, "name": "BatchNorm11", "epsilon": 0.001, "trainable": true, "moving_variance_initializer": {"class_name": "Ones", "config": {}}, "beta_initializer": {"class_name": "Zeros", "config": {}}, "scale": true, "axis": -1, "gamma_constraint": null, "gamma_regularizer": null, "beta_regularizer": null, "momentum": 0.99, "center": true}, "inbound_nodes": [[["ConvolutionDepthwise6", 0, 0, {}]]], "name": "BatchNorm11"}, {"class_name": "Activation", "config": {"activation": "relu", "trainable": true, "name": "ReLU7"}, "inbound_nodes": [[["BatchNorm11", 0, 0, {}]]], "name": "ReLU7"}, {"class_name": "Concatenate", "config": {"trainable": true, "name": "Concat4", "axis": -1}, "inbound_nodes": [[["Concat3", 0, 0, {}], ["ReLU7", 0, 0, {}]]], "name": "Concat4"}, {"class_name": "Conv2D", "config": {"kernel_constraint": null, "kernel_initializer": {"class_name": "VarianceScaling", "config": {"distribution": "normal", "scale": 1.0, "seed": null, "mode": "fan_avg"}}, "name": "Convolution8", "bias_regularizer": null, "bias_constraint": null, "activation": "linear", "trainable": true, "data_format": "channels_last", "padding": "valid", "strides": [1, 1], "dilation_rate": [1, 1], "kernel_regularizer": null, "filters": 128, "bias_initializer": {"class_name": "Constant", "config": {"value": 0}}, "use_bias": false, "activity_regularizer": null, "kernel_size": [1, 1]}, "inbound_nodes": [[["Concat4", 0, 0, {}]]], "name": "Convolution8"}, {"class_name": "BatchNormalization", "config": {"beta_constraint": null, "gamma_initializer": {"class_name": "Ones", "config": {}}, "moving_mean_initializer": {"class_name": "Zeros", "config": {}}, "name": "BatchNorm12", "epsilon": 0.001, "trainable": true, "moving_variance_initializer": {"class_name": "Ones", "config": {}}, "beta_initializer": {"class_name": "Zeros", "config": {}}, "scale": true, "axis": -1, "gamma_constraint": null, "gamma_regularizer": null, "beta_regularizer": null, "momentum": 0.99, "center": true}, "inbound_nodes": [[["Convolution8", 0, 0, {}]]], "name": "BatchNorm12"}, {"class_name": "Activation", "config": {"activation": "relu", "trainable": true, "name": "ReLU8"}, "inbound_nodes": [[["BatchNorm12", 0, 0, {}]]], "name": "ReLU8"}, {"class_name": "MaxPooling2D", "config": {"name": "Pooling2", "trainable": true, "data_format": "channels_last", "pool_size": [2, 2], "padding": "same", "strides": [2, 2]}, "inbound_nodes": [[["ReLU8", 0, 0, {}]]], "name": "Pooling2"}, {"class_name": "Conv2D", "config": {"kernel_constraint": null, "kernel_initializer": {"class_name": "VarianceScaling", "config": {"distribution": "normal", "scale": 1.0, "seed": null, "mode": "fan_avg"}}, "name": "Convolution9", "bias_regularizer": null, "bias_constraint": null, "activation": "linear", "trainable": true, "data_format": "channels_last", "padding": "valid", "strides": [1, 1], "dilation_rate": [1, 1], "kernel_regularizer": null, "filters": 48, "bias_initializer": {"class_name": "Constant", "config": {"value": 0}}, "use_bias": false, "activity_regularizer": null, "kernel_size": [1, 1]}, "inbound_nodes": [[["Pooling2", 0, 0, {}]]], "name": "Convolution9"}, {"class_name": "BatchNormalization", "config": {"beta_constraint": null, "gamma_initializer": {"class_name": "Ones", "config": {}}, "moving_mean_initializer": {"class_name": "Zeros", "config": {}}, "name": "BatchNorm13", "epsilon": 0.001, "trainable": true, "moving_variance_initializer": {"class_name": "Ones", "config": {}}, "beta_initializer": {"class_name": "Zeros", "config": {}}, "scale": true, "axis": -1, "gamma_constraint": null, "gamma_regularizer": null, "beta_regularizer": null, "momentum": 0.99, "center": true}, "inbound_nodes": [[["Convolution9", 0, 0, {}]]], "name": "BatchNorm13"}, {"class_name": "DepthwiseConv2D", "config": {"use_bias": false, "trainable": true, "name": "ConvolutionDepthwise7", "bias_regularizer": null, "bias_constraint": null, "activation": "linear", "depth_multiplier": 1, "depthwise_constraint": null, "data_format": "channels_last", "padding": "same", "strides": [1, 1], "dilation_rate": [1, 1], "depthwise_initializer": {"class_name": "VarianceScaling", "config": {"distribution": "normal", "scale": 1.0, "seed": null, "mode": "fan_avg"}}, "bias_initializer": {"class_name": "Constant", "config": {"value": 0}}, "depthwise_regularizer": null, "activity_regularizer": null, "kernel_size": [3, 3]}, "inbound_nodes": [[["BatchNorm13", 0, 0, {}]]], "name": "ConvolutionDepthwise7"}, {"class_name": "BatchNormalization", "config": {"beta_constraint": null, "gamma_initializer": {"class_name": "Ones", "config": {}}, "moving_mean_initializer": {"class_name": "Zeros", "config": {}}, "name": "BatchNorm14", "epsilon": 0.001, "trainable": true, "moving_variance_initializer": {"class_name": "Ones", "config": {}}, "beta_initializer": {"class_name": "Zeros", "config": {}}, "scale": true, "axis": -1, "gamma_constraint": null, "gamma_regularizer": null, "beta_regularizer": null, "momentum": 0.99, "center": true}, "inbound_nodes": [[["ConvolutionDepthwise7", 0, 0, {}]]], "name": "BatchNorm14"}, {"class_name": "Activation", "config": {"activation": "relu", "trainable": true, "name": "ReLU9"}, "inbound_nodes": [[["BatchNorm14", 0, 0, {}]]], "name": "ReLU9"}, {"class_name": "Concatenate", "config": {"trainable": true, "name": "Concat5", "axis": -1}, "inbound_nodes": [[["Pooling2", 0, 0, {}], ["ReLU9", 0, 0, {}]]], "name": "Concat5"}, {"class_name": "Conv2D", "config": {"kernel_constraint": null, "kernel_initializer": {"class_name": "VarianceScaling", "config": {"distribution": "normal", "scale": 1.0, "seed": null, "mode": "fan_avg"}}, "name": "Convolution10", "bias_regularizer": null, "bias_constraint": null, "activation": "linear", "trainable": true, "data_format": "channels_last", "padding": "valid", "strides": [1, 1], "dilation_rate": [1, 1], "kernel_regularizer": null, "filters": 48, "bias_initializer": {"class_name": "Constant", "config": {"value": 0}}, "use_bias": false, "activity_regularizer": null, "kernel_size": [1, 1]}, "inbound_nodes": [[["Concat5", 0, 0, {}]]], "name": "Convolution10"}, {"class_name": "BatchNormalization", "config": {"beta_constraint": null, "gamma_initializer": {"class_name": "Ones", "config": {}}, "moving_mean_initializer": {"class_name": "Zeros", "config": {}}, "name": "BatchNorm15", "epsilon": 0.001, "trainable": true, "moving_variance_initializer": {"class_name": "Ones", "config": {}}, "beta_initializer": {"class_name": "Zeros", "config": {}}, "scale": true, "axis": -1, "gamma_constraint": null, "gamma_regularizer": null, "beta_regularizer": null, "momentum": 0.99, "center": true}, "inbound_nodes": [[["Convolution10", 0, 0, {}]]], "name": "BatchNorm15"}, {"class_name": "DepthwiseConv2D", "config": {"use_bias": false, "trainable": true, "name": "ConvolutionDepthwise8", "bias_regularizer": null, "bias_constraint": null, "activation": "linear", "depth_multiplier": 1, "depthwise_constraint": null, "data_format": "channels_last", "padding": "same", "strides": [1, 1], "dilation_rate": [1, 1], "depthwise_initializer": {"class_name": "VarianceScaling", "config": {"distribution": "normal", "scale": 1.0, "seed": null, "mode": "fan_avg"}}, "bias_initializer": {"class_name": "Constant", "config": {"value": 0}}, "depthwise_regularizer": null, "activity_regularizer": null, "kernel_size": [3, 3]}, "inbound_nodes": [[["BatchNorm15", 0, 0, {}]]], "name": "ConvolutionDepthwise8"}, {"class_name": "BatchNormalization", "config": {"beta_constraint": null, "gamma_initializer": {"class_name": "Ones", "config": {}}, "moving_mean_initializer": {"class_name": "Zeros", "config": {}}, "name": "BatchNorm16", "epsilon": 0.001, "trainable": true, "moving_variance_initializer": {"class_name": "Ones", "config": {}}, "beta_initializer": {"class_name": "Zeros", "config": {}}, "scale": true, "axis": -1, "gamma_constraint": null, "gamma_regularizer": null, "beta_regularizer": null, "momentum": 0.99, "center": true}, "inbound_nodes": [[["ConvolutionDepthwise8", 0, 0, {}]]], "name": "BatchNorm16"}, {"class_name": "Activation", "config": {"activation": "relu", "trainable": true, "name": "ReLU10"}, "inbound_nodes": [[["BatchNorm16", 0, 0, {}]]], "name": "ReLU10"}, {"class_name": "Concatenate", "config": {"trainable": true, "name": "Concat6", "axis": -1}, "inbound_nodes": [[["Concat5", 0, 0, {}], ["ReLU10", 0, 0, {}]]], "name": "Concat6"}, {"class_name": "Conv2D", "config": {"kernel_constraint": null, "kernel_initializer": {"class_name": "VarianceScaling", "config": {"distribution": "normal", "scale": 1.0, "seed": null, "mode": "fan_avg"}}, "name": "Convolution11", "bias_regularizer": null, "bias_constraint": null, "activation": "linear", "trainable": true, "data_format": "channels_last", "padding": "valid", "strides": [1, 1], "dilation_rate": [1, 1], "kernel_regularizer": null, "filters": 48, "bias_initializer": {"class_name": "Constant", "config": {"value": 0}}, "use_bias": false, "activity_regularizer": null, "kernel_size": [1, 1]}, "inbound_nodes": [[["Concat6", 0, 0, {}]]], "name": "Convolution11"}, {"class_name": "BatchNormalization", "config": {"beta_constraint": null, "gamma_initializer": {"class_name": "Ones", "config": {}}, "moving_mean_initializer": {"class_name": "Zeros", "config": {}}, "name": "BatchNorm17", "epsilon": 0.001, "trainable": true, "moving_variance_initializer": {"class_name": "Ones", "config": {}}, "beta_initializer": {"class_name": "Zeros", "config": {}}, "scale": true, "axis": -1, "gamma_constraint": null, "gamma_regularizer": null, "beta_regularizer": null, "momentum": 0.99, "center": true}, "inbound_nodes": [[["Convolution11", 0, 0, {}]]], "name": "BatchNorm17"}, {"class_name": "DepthwiseConv2D", "config": {"use_bias": false, "trainable": true, "name": "ConvolutionDepthwise9", "bias_regularizer": null, "bias_constraint": null, "activation": "linear", "depth_multiplier": 1, "depthwise_constraint": null, "data_format": "channels_last", "padding": "same", "strides": [1, 1], "dilation_rate": [1, 1], "depthwise_initializer": {"class_name": "VarianceScaling", "config": {"distribution": "normal", "scale": 1.0, "seed": null, "mode": "fan_avg"}}, "bias_initializer": {"class_name": "Constant", "config": {"value": 0}}, "depthwise_regularizer": null, "activity_regularizer": null, "kernel_size": [3, 3]}, "inbound_nodes": [[["BatchNorm17", 0, 0, {}]]], "name": "ConvolutionDepthwise9"}, {"class_name": "BatchNormalization", "config": {"beta_constraint": null, "gamma_initializer": {"class_name": "Ones", "config": {}}, "moving_mean_initializer": {"class_name": "Zeros", "config": {}}, "name": "BatchNorm18", "epsilon": 0.001, "trainable": true, "moving_variance_initializer": {"class_name": "Ones", "config": {}}, "beta_initializer": {"class_name": "Zeros", "config": {}}, "scale": true, "axis": -1, "gamma_constraint": null, "gamma_regularizer": null, "beta_regularizer": null, "momentum": 0.99, "center": true}, "inbound_nodes": [[["ConvolutionDepthwise9", 0, 0, {}]]], "name": "BatchNorm18"}, {"class_name": "Activation", "config": {"activation": "relu", "trainable": true, "name": "ReLU11"}, "inbound_nodes": [[["BatchNorm18", 0, 0, {}]]], "name": "ReLU11"}, {"class_name": "Concatenate", "config": {"trainable": true, "name": "Concat7", "axis": -1}, "inbound_nodes": [[["Concat6", 0, 0, {}], ["ReLU11", 0, 0, {}]]], "name": "Concat7"}, {"class_name": "Conv2D", "config": {"kernel_constraint": null, "kernel_initializer": {"class_name": "VarianceScaling", "config": {"distribution": "normal", "scale": 1.0, "seed": null, "mode": "fan_avg"}}, "name": "Convolution12", "bias_regularizer": null, "bias_constraint": null, "activation": "linear", "trainable": true, "data_format": "channels_last", "padding": "valid", "strides": [1, 1], "dilation_rate": [1, 1], "kernel_regularizer": null, "filters": 48, "bias_initializer": {"class_name": "Constant", "config": {"value": 0}}, "use_bias": false, "activity_regularizer": null, "kernel_size": [1, 1]}, "inbound_nodes": [[["Concat7", 0, 0, {}]]], "name": "Convolution12"}, {"class_name": "BatchNormalization", "config": {"beta_constraint": null, "gamma_initializer": {"class_name": "Ones", "config": {}}, "moving_mean_initializer": {"class_name": "Zeros", "config": {}}, "name": "BatchNorm19", "epsilon": 0.001, "trainable": true, "moving_variance_initializer": {"class_name": "Ones", "config": {}}, "beta_initializer": {"class_name": "Zeros", "config": {}}, "scale": true, "axis": -1, "gamma_constraint": null, "gamma_regularizer": null, "beta_regularizer": null, "momentum": 0.99, "center": true}, "inbound_nodes": [[["Convolution12", 0, 0, {}]]], "name": "BatchNorm19"}, {"class_name": "DepthwiseConv2D", "config": {"use_bias": false, "trainable": true, "name": "ConvolutionDepthwise10", "bias_regularizer": null, "bias_constraint": null, "activation": "linear", "depth_multiplier": 1, "depthwise_constraint": null, "data_format": "channels_last", "padding": "same", "strides": [1, 1], "dilation_rate": [1, 1], "depthwise_initializer": {"class_name": "VarianceScaling", "config": {"distribution": "normal", "scale": 1.0, "seed": null, "mode": "fan_avg"}}, "bias_initializer": {"class_name": "Constant", "config": {"value": 0}}, "depthwise_regularizer": null, "activity_regularizer": null, "kernel_size": [3, 3]}, "inbound_nodes": [[["BatchNorm19", 0, 0, {}]]], "name": "ConvolutionDepthwise10"}, {"class_name": "BatchNormalization", "config": {"beta_constraint": null, "gamma_initializer": {"class_name": "Ones", "config": {}}, "moving_mean_initializer": {"class_name": "Zeros", "config": {}}, "name": "BatchNorm20", "epsilon": 0.001, "trainable": true, "moving_variance_initializer": {"class_name": "Ones", "config": {}}, "beta_initializer": {"class_name": "Zeros", "config": {}}, "scale": true, "axis": -1, "gamma_constraint": null, "gamma_regularizer": null, "beta_regularizer": null, "momentum": 0.99, "center": true}, "inbound_nodes": [[["ConvolutionDepthwise10", 0, 0, {}]]], "name": "BatchNorm20"}, {"class_name": "Activation", "config": {"activation": "relu", "trainable": true, "name": "ReLU12"}, "inbound_nodes": [[["BatchNorm20", 0, 0, {}]]], "name": "ReLU12"}, {"class_name": "Concatenate", "config": {"trainable": true, "name": "Concat8", "axis": -1}, "inbound_nodes": [[["Concat7", 0, 0, {}], ["ReLU12", 0, 0, {}]]], "name": "Concat8"}, {"class_name": "Conv2D", "config": {"kernel_constraint": null, "kernel_initializer": {"class_name": "VarianceScaling", "config": {"distribution": "normal", "scale": 1.0, "seed": null, "mode": "fan_avg"}}, "name": "Convolution13", "bias_regularizer": null, "bias_constraint": null, "activation": "linear", "trainable": true, "data_format": "channels_last", "padding": "valid", "strides": [1, 1], "dilation_rate": [1, 1], "kernel_regularizer": null, "filters": 48, "bias_initializer": {"class_name": "Constant", "config": {"value": 0}}, "use_bias": false, "activity_regularizer": null, "kernel_size": [1, 1]}, "inbound_nodes": [[["Concat8", 0, 0, {}]]], "name": "Convolution13"}, {"class_name": "BatchNormalization", "config": {"beta_constraint": null, "gamma_initializer": {"class_name": "Ones", "config": {}}, "moving_mean_initializer": {"class_name": "Zeros", "config": {}}, "name": "BatchNorm21", "epsilon": 0.001, "trainable": true, "moving_variance_initializer": {"class_name": "Ones", "config": {}}, "beta_initializer": {"class_name": "Zeros", "config": {}}, "scale": true, "axis": -1, "gamma_constraint": null, "gamma_regularizer": null, "beta_regularizer": null, "momentum": 0.99, "center": true}, "inbound_nodes": [[["Convolution13", 0, 0, {}]]], "name": "BatchNorm21"}, {"class_name": "DepthwiseConv2D", "config": {"use_bias": false, "trainable": true, "name": "ConvolutionDepthwise11", "bias_regularizer": null, "bias_constraint": null, "activation": "linear", "depth_multiplier": 1, "depthwise_constraint": null, "data_format": "channels_last", "padding": "same", "strides": [1, 1], "dilation_rate": [1, 1], "depthwise_initializer": {"class_name": "VarianceScaling", "config": {"distribution": "normal", "scale": 1.0, "seed": null, "mode": "fan_avg"}}, "bias_initializer": {"class_name": "Constant", "config": {"value": 0}}, "depthwise_regularizer": null, "activity_regularizer": null, "kernel_size": [3, 3]}, "inbound_nodes": [[["BatchNorm21", 0, 0, {}]]], "name": "ConvolutionDepthwise11"}, {"class_name": "BatchNormalization", "config": {"beta_constraint": null, "gamma_initializer": {"class_name": "Ones", "config": {}}, "moving_mean_initializer": {"class_name": "Zeros", "config": {}}, "name": "BatchNorm22", "epsilon": 0.001, "trainable": true, "moving_variance_initializer": {"class_name": "Ones", "config": {}}, "beta_initializer": {"class_name": "Zeros", "config": {}}, "scale": true, "axis": -1, "gamma_constraint": null, "gamma_regularizer": null, "beta_regularizer": null, "momentum": 0.99, "center": true}, "inbound_nodes": [[["ConvolutionDepthwise11", 0, 0, {}]]], "name": "BatchNorm22"}, {"class_name": "Activation", "config": {"activation": "relu", "trainable": true, "name": "ReLU13"}, "inbound_nodes": [[["BatchNorm22", 0, 0, {}]]], "name": "ReLU13"}, {"class_name": "Concatenate", "config": {"trainable": true, "name": "Concat9", "axis": -1}, "inbound_nodes": [[["Concat8", 0, 0, {}], ["ReLU13", 0, 0, {}]]], "name": "Concat9"}, {"class_name": "Conv2D", "config": {"kernel_constraint": null, "kernel_initializer": {"class_name": "VarianceScaling", "config": {"distribution": "normal", "scale": 1.0, "seed": null, "mode": "fan_avg"}}, "name": "Convolution14", "bias_regularizer": null, "bias_constraint": null, "activation": "linear", "trainable": true, "data_format": "channels_last", "padding": "valid", "strides": [1, 1], "dilation_rate": [1, 1], "kernel_regularizer": null, "filters": 48, "bias_initializer": {"class_name": "Constant", "config": {"value": 0}}, "use_bias": false, "activity_regularizer": null, "kernel_size": [1, 1]}, "inbound_nodes": [[["Concat9", 0, 0, {}]]], "name": "Convolution14"}, {"class_name": "BatchNormalization", "config": {"beta_constraint": null, "gamma_initializer": {"class_name": "Ones", "config": {}}, "moving_mean_initializer": {"class_name": "Zeros", "config": {}}, "name": "BatchNorm23", "epsilon": 0.001, "trainable": true, "moving_variance_initializer": {"class_name": "Ones", "config": {}}, "beta_initializer": {"class_name": "Zeros", "config": {}}, "scale": true, "axis": -1, "gamma_constraint": null, "gamma_regularizer": null, "beta_regularizer": null, "momentum": 0.99, "center": true}, "inbound_nodes": [[["Convolution14", 0, 0, {}]]], "name": "BatchNorm23"}, {"class_name": "DepthwiseConv2D", "config": {"use_bias": false, "trainable": true, "name": "ConvolutionDepthwise12", "bias_regularizer": null, "bias_constraint": null, "activation": "linear", "depth_multiplier": 1, "depthwise_constraint": null, "data_format": "channels_last", "padding": "same", "strides": [1, 1], "dilation_rate": [1, 1], "depthwise_initializer": {"class_name": "VarianceScaling", "config": {"distribution": "normal", "scale": 1.0, "seed": null, "mode": "fan_avg"}}, "bias_initializer": {"class_name": "Constant", "config": {"value": 0}}, "depthwise_regularizer": null, "activity_regularizer": null, "kernel_size": [3, 3]}, "inbound_nodes": [[["BatchNorm23", 0, 0, {}]]], "name": "ConvolutionDepthwise12"}, {"class_name": "BatchNormalization", "config": {"beta_constraint": null, "gamma_initializer": {"class_name": "Ones", "config": {}}, "moving_mean_initializer": {"class_name": "Zeros", "config": {}}, "name": "BatchNorm24", "epsilon": 0.001, "trainable": true, "moving_variance_initializer": {"class_name": "Ones", "config": {}}, "beta_initializer": {"class_name": "Zeros", "config": {}}, "scale": true, "axis": -1, "gamma_constraint": null, "gamma_regularizer": null, "beta_regularizer": null, "momentum": 0.99, "center": true}, "inbound_nodes": [[["ConvolutionDepthwise12", 0, 0, {}]]], "name": "BatchNorm24"}, {"class_name": "Activation", "config": {"activation": "relu", "trainable": true, "name": "ReLU14"}, "inbound_nodes": [[["BatchNorm24", 0, 0, {}]]], "name": "ReLU14"}, {"class_name": "Concatenate", "config": {"trainable": true, "name": "Concat10", "axis": -1}, "inbound_nodes": [[["Concat9", 0, 0, {}], ["ReLU14", 0, 0, {}]]], "name": "Concat10"}, {"class_name": "Conv2D", "config": {"kernel_constraint": null, "kernel_initializer": {"class_name": "VarianceScaling", "config": {"distribution": "normal", "scale": 1.0, "seed": null, "mode": "fan_avg"}}, "name": "Convolution15", "bias_regularizer": null, "bias_constraint": null, "activation": "linear", "trainable": true, "data_format": "channels_last", "padding": "valid", "strides": [1, 1], "dilation_rate": [1, 1], "kernel_regularizer": null, "filters": 128, "bias_initializer": {"class_name": "Constant", "config": {"value": 0}}, "use_bias": false, "activity_regularizer": null, "kernel_size": [1, 1]}, "inbound_nodes": [[["Concat10", 0, 0, {}]]], "name": "Convolution15"}, {"class_name": "BatchNormalization", "config": {"beta_constraint": null, "gamma_initializer": {"class_name": "Ones", "config": {}}, "moving_mean_initializer": {"class_name": "Zeros", "config": {}}, "name": "BatchNorm25", "epsilon": 0.001, "trainable": true, "moving_variance_initializer": {"class_name": "Ones", "config": {}}, "beta_initializer": {"class_name": "Zeros", "config": {}}, "scale": true, "axis": -1, "gamma_constraint": null, "gamma_regularizer": null, "beta_regularizer": null, "momentum": 0.99, "center": true}, "inbound_nodes": [[["Convolution15", 0, 0, {}]]], "name": "BatchNorm25"}, {"class_name": "Activation", "config": {"activation": "relu", "trainable": true, "name": "First"}, "inbound_nodes": [[["BatchNorm25", 0, 0, {}]]], "name": "First"}, {"class_name": "MaxPooling2D", "config": {"name": "Pooling4", "trainable": true, "data_format": "channels_last", "pool_size": [2, 2], "padding": "same", "strides": [2, 2]}, "inbound_nodes": [[["First", 0, 0, {}]]], "name": "Pooling4"}, {"class_name": "Conv2D", "config": {"kernel_constraint": null, "kernel_initializer": {"class_name": "VarianceScaling", "config": {"distribution": "normal", "scale": 1.0, "seed": null, "mode": "fan_avg"}}, "name": "Convolution17", "bias_regularizer": null, "bias_constraint": null, "activation": "linear", "trainable": true, "data_format": "channels_last", "padding": "valid", "strides": [1, 1], "dilation_rate": [1, 1], "kernel_regularizer": null, "filters": 64, "bias_initializer": {"class_name": "Constant", "config": {"value": 0}}, "use_bias": false, "activity_regularizer": null, "kernel_size": [1, 1]}, "inbound_nodes": [[["Pooling4", 0, 0, {}]]], "name": "Convolution17"}, {"class_name": "BatchNormalization", "config": {"beta_constraint": null, "gamma_initializer": {"class_name": "Ones", "config": {}}, "moving_mean_initializer": {"class_name": "Zeros", "config": {}}, "name": "BatchNorm27", "epsilon": 0.001, "trainable": true, "moving_variance_initializer": {"class_name": "Ones", "config": {}}, "beta_initializer": {"class_name": "Zeros", "config": {}}, "scale": true, "axis": -1, "gamma_constraint": null, "gamma_regularizer": null, "beta_regularizer": null, "momentum": 0.99, "center": true}, "inbound_nodes": [[["Convolution17", 0, 0, {}]]], "name": "BatchNorm27"}, {"class_name": "DepthwiseConv2D", "config": {"use_bias": false, "trainable": true, "name": "ConvolutionDepthwise13", "bias_regularizer": null, "bias_constraint": null, "activation": "linear", "depth_multiplier": 1, "depthwise_constraint": null, "data_format": "channels_last", "padding": "same", "strides": [1, 1], "dilation_rate": [1, 1], "depthwise_initializer": {"class_name": "VarianceScaling", "config": {"distribution": "normal", "scale": 1.0, "seed": null, "mode": "fan_avg"}}, "bias_initializer": {"class_name": "Constant", "config": {"value": 0}}, "depthwise_regularizer": null, "activity_regularizer": null, "kernel_size": [3, 3]}, "inbound_nodes": [[["BatchNorm27", 0, 0, {}]]], "name": "ConvolutionDepthwise13"}, {"class_name": "BatchNormalization", "config": {"beta_constraint": null, "gamma_initializer": {"class_name": "Ones", "config": {}}, "moving_mean_initializer": {"class_name": "Zeros", "config": {}}, "name": "BatchNorm28", "epsilon": 0.001, "trainable": true, "moving_variance_initializer": {"class_name": "Ones", "config": {}}, "beta_initializer": {"class_name": "Zeros", "config": {}}, "scale": true, "axis": -1, "gamma_constraint": null, "gamma_regularizer": null, "beta_regularizer": null, "momentum": 0.99, "center": true}, "inbound_nodes": [[["ConvolutionDepthwise13", 0, 0, {}]]], "name": "BatchNorm28"}, {"class_name": "Activation", "config": {"activation": "relu", "trainable": true, "name": "ReLU16"}, "inbound_nodes": [[["BatchNorm28", 0, 0, {}]]], "name": "ReLU16"}, {"class_name": "Concatenate", "config": {"trainable": true, "name": "Concat11", "axis": -1}, "inbound_nodes": [[["Pooling4", 0, 0, {}], ["ReLU16", 0, 0, {}]]], "name": "Concat11"}, {"class_name": "Conv2D", "config": {"kernel_constraint": null, "kernel_initializer": {"class_name": "VarianceScaling", "config": {"distribution": "normal", "scale": 1.0, "seed": null, "mode": "fan_avg"}}, "name": "Convolution18", "bias_regularizer": null, "bias_constraint": null, "activation": "linear", "trainable": true, "data_format": "channels_last", "padding": "valid", "strides": [1, 1], "dilation_rate": [1, 1], "kernel_regularizer": null, "filters": 64, "bias_initializer": {"class_name": "Constant", "config": {"value": 0}}, "use_bias": false, "activity_regularizer": null, "kernel_size": [1, 1]}, "inbound_nodes": [[["Concat11", 0, 0, {}]]], "name": "Convolution18"}, {"class_name": "BatchNormalization", "config": {"beta_constraint": null, "gamma_initializer": {"class_name": "Ones", "config": {}}, "moving_mean_initializer": {"class_name": "Zeros", "config": {}}, "name": "BatchNorm29", "epsilon": 0.001, "trainable": true, "moving_variance_initializer": {"class_name": "Ones", "config": {}}, "beta_initializer": {"class_name": "Zeros", "config": {}}, "scale": true, "axis": -1, "gamma_constraint": null, "gamma_regularizer": null, "beta_regularizer": null, "momentum": 0.99, "center": true}, "inbound_nodes": [[["Convolution18", 0, 0, {}]]], "name": "BatchNorm29"}, {"class_name": "DepthwiseConv2D", "config": {"use_bias": false, "trainable": true, "name": "ConvolutionDepthwise14", "bias_regularizer": null, "bias_constraint": null, "activation": "linear", "depth_multiplier": 1, "depthwise_constraint": null, "data_format": "channels_last", "padding": "same", "strides": [1, 1], "dilation_rate": [1, 1], "depthwise_initializer": {"class_name": "VarianceScaling", "config": {"distribution": "normal", "scale": 1.0, "seed": null, "mode": "fan_avg"}}, "bias_initializer": {"class_name": "Constant", "config": {"value": 0}}, "depthwise_regularizer": null, "activity_regularizer": null, "kernel_size": [3, 3]}, "inbound_nodes": [[["BatchNorm29", 0, 0, {}]]], "name": "ConvolutionDepthwise14"}, {"class_name": "BatchNormalization", "config": {"beta_constraint": null, "gamma_initializer": {"class_name": "Ones", "config": {}}, "moving_mean_initializer": {"class_name": "Zeros", "config": {}}, "name": "BatchNorm30", "epsilon": 0.001, "trainable": true, "moving_variance_initializer": {"class_name": "Ones", "config": {}}, "beta_initializer": {"class_name": "Zeros", "config": {}}, "scale": true, "axis": -1, "gamma_constraint": null, "gamma_regularizer": null, "beta_regularizer": null, "momentum": 0.99, "center": true}, "inbound_nodes": [[["ConvolutionDepthwise14", 0, 0, {}]]], "name": "BatchNorm30"}, {"class_name": "Activation", "config": {"activation": "relu", "trainable": true, "name": "ReLU17"}, "inbound_nodes": [[["BatchNorm30", 0, 0, {}]]], "name": "ReLU17"}, {"class_name": "Concatenate", "config": {"trainable": true, "name": "Concat12", "axis": -1}, "inbound_nodes": [[["Concat11", 0, 0, {}], ["ReLU17", 0, 0, {}]]], "name": "Concat12"}, {"class_name": "Conv2D", "config": {"kernel_constraint": null, "kernel_initializer": {"class_name": "VarianceScaling", "config": {"distribution": "normal", "scale": 1.0, "seed": null, "mode": "fan_avg"}}, "name": "Convolution19", "bias_regularizer": null, "bias_constraint": null, "activation": "linear", "trainable": true, "data_format": "channels_last", "padding": "valid", "strides": [1, 1], "dilation_rate": [1, 1], "kernel_regularizer": null, "filters": 64, "bias_initializer": {"class_name": "Constant", "config": {"value": 0}}, "use_bias": false, "activity_regularizer": null, "kernel_size": [1, 1]}, "inbound_nodes": [[["Concat12", 0, 0, {}]]], "name": "Convolution19"}, {"class_name": "BatchNormalization", "config": {"beta_constraint": null, "gamma_initializer": {"class_name": "Ones", "config": {}}, "moving_mean_initializer": {"class_name": "Zeros", "config": {}}, "name": "BatchNorm31", "epsilon": 0.001, "trainable": true, "moving_variance_initializer": {"class_name": "Ones", "config": {}}, "beta_initializer": {"class_name": "Zeros", "config": {}}, "scale": true, "axis": -1, "gamma_constraint": null, "gamma_regularizer": null, "beta_regularizer": null, "momentum": 0.99, "center": true}, "inbound_nodes": [[["Convolution19", 0, 0, {}]]], "name": "BatchNorm31"}, {"class_name": "DepthwiseConv2D", "config": {"use_bias": false, "trainable": true, "name": "ConvolutionDepthwise15", "bias_regularizer": null, "bias_constraint": null, "activation": "linear", "depth_multiplier": 1, "depthwise_constraint": null, "data_format": "channels_last", "padding": "same", "strides": [1, 1], "dilation_rate": [1, 1], "depthwise_initializer": {"class_name": "VarianceScaling", "config": {"distribution": "normal", "scale": 1.0, "seed": null, "mode": "fan_avg"}}, "bias_initializer": {"class_name": "Constant", "config": {"value": 0}}, "depthwise_regularizer": null, "activity_regularizer": null, "kernel_size": [3, 3]}, "inbound_nodes": [[["BatchNorm31", 0, 0, {}]]], "name": "ConvolutionDepthwise15"}, {"class_name": "BatchNormalization", "config": {"beta_constraint": null, "gamma_initializer": {"class_name": "Ones", "config": {}}, "moving_mean_initializer": {"class_name": "Zeros", "config": {}}, "name": "BatchNorm32", "epsilon": 0.001, "trainable": true, "moving_variance_initializer": {"class_name": "Ones", "config": {}}, "beta_initializer": {"class_name": "Zeros", "config": {}}, "scale": true, "axis": -1, "gamma_constraint": null, "gamma_regularizer": null, "beta_regularizer": null, "momentum": 0.99, "center": true}, "inbound_nodes": [[["ConvolutionDepthwise15", 0, 0, {}]]], "name": "BatchNorm32"}, {"class_name": "Activation", "config": {"activation": "relu", "trainable": true, "name": "ReLU18"}, "inbound_nodes": [[["BatchNorm32", 0, 0, {}]]], "name": "ReLU18"}, {"class_name": "Concatenate", "config": {"trainable": true, "name": "Concat13", "axis": -1}, "inbound_nodes": [[["Concat12", 0, 0, {}], ["ReLU18", 0, 0, {}]]], "name": "Concat13"}, {"class_name": "Conv2D", "config": {"kernel_constraint": null, "kernel_initializer": {"class_name": "VarianceScaling", "config": {"distribution": "normal", "scale": 1.0, "seed": null, "mode": "fan_avg"}}, "name": "Convolution20", "bias_regularizer": null, "bias_constraint": null, "activation": "linear", "trainable": true, "data_format": "channels_last", "padding": "valid", "strides": [1, 1], "dilation_rate": [1, 1], "kernel_regularizer": null, "filters": 64, "bias_initializer": {"class_name": "Constant", "config": {"value": 0}}, "use_bias": false, "activity_regularizer": null, "kernel_size": [1, 1]}, "inbound_nodes": [[["Concat13", 0, 0, {}]]], "name": "Convolution20"}, {"class_name": "BatchNormalization", "config": {"beta_constraint": null, "gamma_initializer": {"class_name": "Ones", "config": {}}, "moving_mean_initializer": {"class_name": "Zeros", "config": {}}, "name": "BatchNorm33", "epsilon": 0.001, "trainable": true, "moving_variance_initializer": {"class_name": "Ones", "config": {}}, "beta_initializer": {"class_name": "Zeros", "config": {}}, "scale": true, "axis": -1, "gamma_constraint": null, "gamma_regularizer": null, "beta_regularizer": null, "momentum": 0.99, "center": true}, "inbound_nodes": [[["Convolution20", 0, 0, {}]]], "name": "BatchNorm33"}, {"class_name": "DepthwiseConv2D", "config": {"use_bias": false, "trainable": true, "name": "ConvolutionDepthwise16", "bias_regularizer": null, "bias_constraint": null, "activation": "linear", "depth_multiplier": 1, "depthwise_constraint": null, "data_format": "channels_last", "padding": "same", "strides": [1, 1], "dilation_rate": [1, 1], "depthwise_initializer": {"class_name": "VarianceScaling", "config": {"distribution": "normal", "scale": 1.0, "seed": null, "mode": "fan_avg"}}, "bias_initializer": {"class_name": "Constant", "config": {"value": 0}}, "depthwise_regularizer": null, "activity_regularizer": null, "kernel_size": [3, 3]}, "inbound_nodes": [[["BatchNorm33", 0, 0, {}]]], "name": "ConvolutionDepthwise16"}, {"class_name": "BatchNormalization", "config": {"beta_constraint": null, "gamma_initializer": {"class_name": "Ones", "config": {}}, "moving_mean_initializer": {"class_name": "Zeros", "config": {}}, "name": "BatchNorm34", "epsilon": 0.001, "trainable": true, "moving_variance_initializer": {"class_name": "Ones", "config": {}}, "beta_initializer": {"class_name": "Zeros", "config": {}}, "scale": true, "axis": -1, "gamma_constraint": null, "gamma_regularizer": null, "beta_regularizer": null, "momentum": 0.99, "center": true}, "inbound_nodes": [[["ConvolutionDepthwise16", 0, 0, {}]]], "name": "BatchNorm34"}, {"class_name": "Activation", "config": {"activation": "relu", "trainable": true, "name": "ReLU19"}, "inbound_nodes": [[["BatchNorm34", 0, 0, {}]]], "name": "ReLU19"}, {"class_name": "Concatenate", "config": {"trainable": true, "name": "Concat14", "axis": -1}, "inbound_nodes": [[["Concat13", 0, 0, {}], ["ReLU19", 0, 0, {}]]], "name": "Concat14"}, {"class_name": "Conv2D", "config": {"kernel_constraint": null, "kernel_initializer": {"class_name": "VarianceScaling", "config": {"distribution": "normal", "scale": 1.0, "seed": null, "mode": "fan_avg"}}, "name": "Convolution21", "bias_regularizer": null, "bias_constraint": null, "activation": "linear", "trainable": true, "data_format": "channels_last", "padding": "valid", "strides": [1, 1], "dilation_rate": [1, 1], "kernel_regularizer": null, "filters": 64, "bias_initializer": {"class_name": "Constant", "config": {"value": 0}}, "use_bias": false, "activity_regularizer": null, "kernel_size": [1, 1]}, "inbound_nodes": [[["Concat14", 0, 0, {}]]], "name": "Convolution21"}, {"class_name": "BatchNormalization", "config": {"beta_constraint": null, "gamma_initializer": {"class_name": "Ones", "config": {}}, "moving_mean_initializer": {"class_name": "Zeros", "config": {}}, "name": "BatchNorm35", "epsilon": 0.001, "trainable": true, "moving_variance_initializer": {"class_name": "Ones", "config": {}}, "beta_initializer": {"class_name": "Zeros", "config": {}}, "scale": true, "axis": -1, "gamma_constraint": null, "gamma_regularizer": null, "beta_regularizer": null, "momentum": 0.99, "center": true}, "inbound_nodes": [[["Convolution21", 0, 0, {}]]], "name": "BatchNorm35"}, {"class_name": "DepthwiseConv2D", "config": {"use_bias": false, "trainable": true, "name": "ConvolutionDepthwise17", "bias_regularizer": null, "bias_constraint": null, "activation": "linear", "depth_multiplier": 1, "depthwise_constraint": null, "data_format": "channels_last", "padding": "same", "strides": [1, 1], "dilation_rate": [1, 1], "depthwise_initializer": {"class_name": "VarianceScaling", "config": {"distribution": "normal", "scale": 1.0, "seed": null, "mode": "fan_avg"}}, "bias_initializer": {"class_name": "Constant", "config": {"value": 0}}, "depthwise_regularizer": null, "activity_regularizer": null, "kernel_size": [3, 3]}, "inbound_nodes": [[["BatchNorm35", 0, 0, {}]]], "name": "ConvolutionDepthwise17"}, {"class_name": "BatchNormalization", "config": {"beta_constraint": null, "gamma_initializer": {"class_name": "Ones", "config": {}}, "moving_mean_initializer": {"class_name": "Zeros", "config": {}}, "name": "BatchNorm36", "epsilon": 0.001, "trainable": true, "moving_variance_initializer": {"class_name": "Ones", "config": {}}, "beta_initializer": {"class_name": "Zeros", "config": {}}, "scale": true, "axis": -1, "gamma_constraint": null, "gamma_regularizer": null, "beta_regularizer": null, "momentum": 0.99, "center": true}, "inbound_nodes": [[["ConvolutionDepthwise17", 0, 0, {}]]], "name": "BatchNorm36"}, {"class_name": "Activation", "config": {"activation": "relu", "trainable": true, "name": "ReLU20"}, "inbound_nodes": [[["BatchNorm36", 0, 0, {}]]], "name": "ReLU20"}, {"class_name": "Concatenate", "config": {"trainable": true, "name": "Concat15", "axis": -1}, "inbound_nodes": [[["Concat14", 0, 0, {}], ["ReLU20", 0, 0, {}]]], "name": "Concat15"}, {"class_name": "Conv2D", "config": {"kernel_constraint": null, "kernel_initializer": {"class_name": "VarianceScaling", "config": {"distribution": "normal", "scale": 1.0, "seed": null, "mode": "fan_avg"}}, "name": "Convolution22", "bias_regularizer": null, "bias_constraint": null, "activation": "linear", "trainable": true, "data_format": "channels_last", "padding": "valid", "strides": [1, 1], "dilation_rate": [1, 1], "kernel_regularizer": null, "filters": 64, "bias_initializer": {"class_name": "Constant", "config": {"value": 0}}, "use_bias": false, "activity_regularizer": null, "kernel_size": [1, 1]}, "inbound_nodes": [[["Concat15", 0, 0, {}]]], "name": "Convolution22"}, {"class_name": "BatchNormalization", "config": {"beta_constraint": null, "gamma_initializer": {"class_name": "Ones", "config": {}}, "moving_mean_initializer": {"class_name": "Zeros", "config": {}}, "name": "BatchNorm37", "epsilon": 0.001, "trainable": true, "moving_variance_initializer": {"class_name": "Ones", "config": {}}, "beta_initializer": {"class_name": "Zeros", "config": {}}, "scale": true, "axis": -1, "gamma_constraint": null, "gamma_regularizer": null, "beta_regularizer": null, "momentum": 0.99, "center": true}, "inbound_nodes": [[["Convolution22", 0, 0, {}]]], "name": "BatchNorm37"}, {"class_name": "DepthwiseConv2D", "config": {"use_bias": false, "trainable": true, "name": "ConvolutionDepthwise18", "bias_regularizer": null, "bias_constraint": null, "activation": "linear", "depth_multiplier": 1, "depthwise_constraint": null, "data_format": "channels_last", "padding": "same", "strides": [1, 1], "dilation_rate": [1, 1], "depthwise_initializer": {"class_name": "VarianceScaling", "config": {"distribution": "normal", "scale": 1.0, "seed": null, "mode": "fan_avg"}}, "bias_initializer": {"class_name": "Constant", "config": {"value": 0}}, "depthwise_regularizer": null, "activity_regularizer": null, "kernel_size": [3, 3]}, "inbound_nodes": [[["BatchNorm37", 0, 0, {}]]], "name": "ConvolutionDepthwise18"}, {"class_name": "BatchNormalization", "config": {"beta_constraint": null, "gamma_initializer": {"class_name": "Ones", "config": {}}, "moving_mean_initializer": {"class_name": "Zeros", "config": {}}, "name": "BatchNorm38", "epsilon": 0.001, "trainable": true, "moving_variance_initializer": {"class_name": "Ones", "config": {}}, "beta_initializer": {"class_name": "Zeros", "config": {}}, "scale": true, "axis": -1, "gamma_constraint": null, "gamma_regularizer": null, "beta_regularizer": null, "momentum": 0.99, "center": true}, "inbound_nodes": [[["ConvolutionDepthwise18", 0, 0, {}]]], "name": "BatchNorm38"}, {"class_name": "Activation", "config": {"activation": "relu", "trainable": true, "name": "ReLU21"}, "inbound_nodes": [[["BatchNorm38", 0, 0, {}]]], "name": "ReLU21"}, {"class_name": "Concatenate", "config": {"trainable": true, "name": "Concat16", "axis": -1}, "inbound_nodes": [[["Concat15", 0, 0, {}], ["ReLU21", 0, 0, {}]]], "name": "Concat16"}, {"class_name": "Conv2D", "config": {"kernel_constraint": null, "kernel_initializer": {"class_name": "VarianceScaling", "config": {"distribution": "normal", "scale": 1.0, "seed": null, "mode": "fan_avg"}}, "name": "Convolution23", "bias_regularizer": null, "bias_constraint": null, "activation": "linear", "trainable": true, "data_format": "channels_last", "padding": "valid", "strides": [1, 1], "dilation_rate": [1, 1], "kernel_regularizer": null, "filters": 256, "bias_initializer": {"class_name": "Constant", "config": {"value": 0}}, "use_bias": false, "activity_regularizer": null, "kernel_size": [1, 1]}, "inbound_nodes": [[["Concat16", 0, 0, {}]]], "name": "Convolution23"}, {"class_name": "BatchNormalization", "config": {"beta_constraint": null, "gamma_initializer": {"class_name": "Ones", "config": {}}, "moving_mean_initializer": {"class_name": "Zeros", "config": {}}, "name": "BatchNorm39", "epsilon": 0.001, "trainable": true, "moving_variance_initializer": {"class_name": "Ones", "config": {}}, "beta_initializer": {"class_name": "Zeros", "config": {}}, "scale": true, "axis": -1, "gamma_constraint": null, "gamma_regularizer": null, "beta_regularizer": null, "momentum": 0.99, "center": true}, "inbound_nodes": [[["Convolution23", 0, 0, {}]]], "name": "BatchNorm39"}, {"class_name": "Activation", "config": {"activation": "relu", "trainable": true, "name": "ReLU22"}, "inbound_nodes": [[["BatchNorm39", 0, 0, {}]]], "name": "ReLU22"}, {"class_name": "Conv2D", "config": {"kernel_constraint": null, "kernel_initializer": {"class_name": "VarianceScaling", "config": {"distribution": "normal", "scale": 1.0, "seed": null, "mode": "fan_avg"}}, "name": "Convolution24", "bias_regularizer": null, "bias_constraint": null, "activation": "linear", "trainable": true, "data_format": "channels_last", "padding": "valid", "strides": [1, 1], "dilation_rate": [1, 1], "kernel_regularizer": null, "filters": 80, "bias_initializer": {"class_name": "Constant", "config": {"value": 0}}, "use_bias": false, "activity_regularizer": null, "kernel_size": [1, 1]}, "inbound_nodes": [[["ReLU22", 0, 0, {}]]], "name": "Convolution24"}, {"class_name": "BatchNormalization", "config": {"beta_constraint": null, "gamma_initializer": {"class_name": "Ones", "config": {}}, "moving_mean_initializer": {"class_name": "Zeros", "config": {}}, "name": "BatchNorm40", "epsilon": 0.001, "trainable": true, "moving_variance_initializer": {"class_name": "Ones", "config": {}}, "beta_initializer": {"class_name": "Zeros", "config": {}}, "scale": true, "axis": -1, "gamma_constraint": null, "gamma_regularizer": null, "beta_regularizer": null, "momentum": 0.99, "center": true}, "inbound_nodes": [[["Convolution24", 0, 0, {}]]], "name": "BatchNorm40"}, {"class_name": "DepthwiseConv2D", "config": {"use_bias": false, "trainable": true, "name": "ConvolutionDepthwise19", "bias_regularizer": null, "bias_constraint": null, "activation": "linear", "depth_multiplier": 1, "depthwise_constraint": null, "data_format": "channels_last", "padding": "same", "strides": [1, 1], "dilation_rate": [1, 1], "depthwise_initializer": {"class_name": "VarianceScaling", "config": {"distribution": "normal", "scale": 1.0, "seed": null, "mode": "fan_avg"}}, "bias_initializer": {"class_name": "Constant", "config": {"value": 0}}, "depthwise_regularizer": null, "activity_regularizer": null, "kernel_size": [3, 3]}, "inbound_nodes": [[["BatchNorm40", 0, 0, {}]]], "name": "ConvolutionDepthwise19"}, {"class_name": "BatchNormalization", "config": {"beta_constraint": null, "gamma_initializer": {"class_name": "Ones", "config": {}}, "moving_mean_initializer": {"class_name": "Zeros", "config": {}}, "name": "BatchNorm41", "epsilon": 0.001, "trainable": true, "moving_variance_initializer": {"class_name": "Ones", "config": {}}, "beta_initializer": {"class_name": "Zeros", "config": {}}, "scale": true, "axis": -1, "gamma_constraint": null, "gamma_regularizer": null, "beta_regularizer": null, "momentum": 0.99, "center": true}, "inbound_nodes": [[["ConvolutionDepthwise19", 0, 0, {}]]], "name": "BatchNorm41"}, {"class_name": "Activation", "config": {"activation": "relu", "trainable": true, "name": "ReLU23"}, "inbound_nodes": [[["BatchNorm41", 0, 0, {}]]], "name": "ReLU23"}, {"class_name": "Concatenate", "config": {"trainable": true, "name": "Concat17", "axis": -1}, "inbound_nodes": [[["ReLU22", 0, 0, {}], ["ReLU23", 0, 0, {}]]], "name": "Concat17"}, {"class_name": "Conv2D", "config": {"kernel_constraint": null, "kernel_initializer": {"class_name": "VarianceScaling", "config": {"distribution": "normal", "scale": 1.0, "seed": null, "mode": "fan_avg"}}, "name": "Convolution25", "bias_regularizer": null, "bias_constraint": null, "activation": "linear", "trainable": true, "data_format": "channels_last", "padding": "valid", "strides": [1, 1], "dilation_rate": [1, 1], "kernel_regularizer": null, "filters": 80, "bias_initializer": {"class_name": "Constant", "config": {"value": 0}}, "use_bias": false, "activity_regularizer": null, "kernel_size": [1, 1]}, "inbound_nodes": [[["Concat17", 0, 0, {}]]], "name": "Convolution25"}, {"class_name": "BatchNormalization", "config": {"beta_constraint": null, "gamma_initializer": {"class_name": "Ones", "config": {}}, "moving_mean_initializer": {"class_name": "Zeros", "config": {}}, "name": "BatchNorm42", "epsilon": 0.001, "trainable": true, "moving_variance_initializer": {"class_name": "Ones", "config": {}}, "beta_initializer": {"class_name": "Zeros", "config": {}}, "scale": true, "axis": -1, "gamma_constraint": null, "gamma_regularizer": null, "beta_regularizer": null, "momentum": 0.99, "center": true}, "inbound_nodes": [[["Convolution25", 0, 0, {}]]], "name": "BatchNorm42"}, {"class_name": "DepthwiseConv2D", "config": {"use_bias": false, "trainable": true, "name": "ConvolutionDepthwise20", "bias_regularizer": null, "bias_constraint": null, "activation": "linear", "depth_multiplier": 1, "depthwise_constraint": null, "data_format": "channels_last", "padding": "same", "strides": [1, 1], "dilation_rate": [1, 1], "depthwise_initializer": {"class_name": "VarianceScaling", "config": {"distribution": "normal", "scale": 1.0, "seed": null, "mode": "fan_avg"}}, "bias_initializer": {"class_name": "Constant", "config": {"value": 0}}, "depthwise_regularizer": null, "activity_regularizer": null, "kernel_size": [3, 3]}, "inbound_nodes": [[["BatchNorm42", 0, 0, {}]]], "name": "ConvolutionDepthwise20"}, {"class_name": "BatchNormalization", "config": {"beta_constraint": null, "gamma_initializer": {"class_name": "Ones", "config": {}}, "moving_mean_initializer": {"class_name": "Zeros", "config": {}}, "name": "BatchNorm43", "epsilon": 0.001, "trainable": true, "moving_variance_initializer": {"class_name": "Ones", "config": {}}, "beta_initializer": {"class_name": "Zeros", "config": {}}, "scale": true, "axis": -1, "gamma_constraint": null, "gamma_regularizer": null, "beta_regularizer": null, "momentum": 0.99, "center": true}, "inbound_nodes": [[["ConvolutionDepthwise20", 0, 0, {}]]], "name": "BatchNorm43"}, {"class_name": "Activation", "config": {"activation": "relu", "trainable": true, "name": "ReLU24"}, "inbound_nodes": [[["BatchNorm43", 0, 0, {}]]], "name": "ReLU24"}, {"class_name": "Concatenate", "config": {"trainable": true, "name": "Concat18", "axis": -1}, "inbound_nodes": [[["Concat17", 0, 0, {}], ["ReLU24", 0, 0, {}]]], "name": "Concat18"}, {"class_name": "Conv2D", "config": {"kernel_constraint": null, "kernel_initializer": {"class_name": "VarianceScaling", "config": {"distribution": "normal", "scale": 1.0, "seed": null, "mode": "fan_avg"}}, "name": "Convolution26", "bias_regularizer": null, "bias_constraint": null, "activation": "linear", "trainable": true, "data_format": "channels_last", "padding": "valid", "strides": [1, 1], "dilation_rate": [1, 1], "kernel_regularizer": null, "filters": 80, "bias_initializer": {"class_name": "Constant", "config": {"value": 0}}, "use_bias": false, "activity_regularizer": null, "kernel_size": [1, 1]}, "inbound_nodes": [[["Concat18", 0, 0, {}]]], "name": "Convolution26"}, {"class_name": "BatchNormalization", "config": {"beta_constraint": null, "gamma_initializer": {"class_name": "Ones", "config": {}}, "moving_mean_initializer": {"class_name": "Zeros", "config": {}}, "name": "BatchNorm44", "epsilon": 0.001, "trainable": true, "moving_variance_initializer": {"class_name": "Ones", "config": {}}, "beta_initializer": {"class_name": "Zeros", "config": {}}, "scale": true, "axis": -1, "gamma_constraint": null, "gamma_regularizer": null, "beta_regularizer": null, "momentum": 0.99, "center": true}, "inbound_nodes": [[["Convolution26", 0, 0, {}]]], "name": "BatchNorm44"}, {"class_name": "DepthwiseConv2D", "config": {"use_bias": false, "trainable": true, "name": "ConvolutionDepthwise21", "bias_regularizer": null, "bias_constraint": null, "activation": "linear", "depth_multiplier": 1, "depthwise_constraint": null, "data_format": "channels_last", "padding": "same", "strides": [1, 1], "dilation_rate": [1, 1], "depthwise_initializer": {"class_name": "VarianceScaling", "config": {"distribution": "normal", "scale": 1.0, "seed": null, "mode": "fan_avg"}}, "bias_initializer": {"class_name": "Constant", "config": {"value": 0}}, "depthwise_regularizer": null, "activity_regularizer": null, "kernel_size": [3, 3]}, "inbound_nodes": [[["BatchNorm44", 0, 0, {}]]], "name": "ConvolutionDepthwise21"}, {"class_name": "BatchNormalization", "config": {"beta_constraint": null, "gamma_initializer": {"class_name": "Ones", "config": {}}, "moving_mean_initializer": {"class_name": "Zeros", "config": {}}, "name": "BatchNorm45", "epsilon": 0.001, "trainable": true, "moving_variance_initializer": {"class_name": "Ones", "config": {}}, "beta_initializer": {"class_name": "Zeros", "config": {}}, "scale": true, "axis": -1, "gamma_constraint": null, "gamma_regularizer": null, "beta_regularizer": null, "momentum": 0.99, "center": true}, "inbound_nodes": [[["ConvolutionDepthwise21", 0, 0, {}]]], "name": "BatchNorm45"}, {"class_name": "Activation", "config": {"activation": "relu", "trainable": true, "name": "ReLU25"}, "inbound_nodes": [[["BatchNorm45", 0, 0, {}]]], "name": "ReLU25"}, {"class_name": "Concatenate", "config": {"trainable": true, "name": "Concat19", "axis": -1}, "inbound_nodes": [[["Concat18", 0, 0, {}], ["ReLU25", 0, 0, {}]]], "name": "Concat19"}, {"class_name": "Conv2D", "config": {"kernel_constraint": null, "kernel_initializer": {"class_name": "VarianceScaling", "config": {"distribution": "normal", "scale": 1.0, "seed": null, "mode": "fan_avg"}}, "name": "Convolution27", "bias_regularizer": null, "bias_constraint": null, "activation": "linear", "trainable": true, "data_format": "channels_last", "padding": "valid", "strides": [1, 1], "dilation_rate": [1, 1], "kernel_regularizer": null, "filters": 80, "bias_initializer": {"class_name": "Constant", "config": {"value": 0}}, "use_bias": false, "activity_regularizer": null, "kernel_size": [1, 1]}, "inbound_nodes": [[["Concat19", 0, 0, {}]]], "name": "Convolution27"}, {"class_name": "BatchNormalization", "config": {"beta_constraint": null, "gamma_initializer": {"class_name": "Ones", "config": {}}, "moving_mean_initializer": {"class_name": "Zeros", "config": {}}, "name": "BatchNorm46", "epsilon": 0.001, "trainable": true, "moving_variance_initializer": {"class_name": "Ones", "config": {}}, "beta_initializer": {"class_name": "Zeros", "config": {}}, "scale": true, "axis": -1, "gamma_constraint": null, "gamma_regularizer": null, "beta_regularizer": null, "momentum": 0.99, "center": true}, "inbound_nodes": [[["Convolution27", 0, 0, {}]]], "name": "BatchNorm46"}, {"class_name": "DepthwiseConv2D", "config": {"use_bias": false, "trainable": true, "name": "ConvolutionDepthwise22", "bias_regularizer": null, "bias_constraint": null, "activation": "linear", "depth_multiplier": 1, "depthwise_constraint": null, "data_format": "channels_last", "padding": "same", "strides": [1, 1], "dilation_rate": [1, 1], "depthwise_initializer": {"class_name": "VarianceScaling", "config": {"distribution": "normal", "scale": 1.0, "seed": null, "mode": "fan_avg"}}, "bias_initializer": {"class_name": "Constant", "config": {"value": 0}}, "depthwise_regularizer": null, "activity_regularizer": null, "kernel_size": [3, 3]}, "inbound_nodes": [[["BatchNorm46", 0, 0, {}]]], "name": "ConvolutionDepthwise22"}, {"class_name": "BatchNormalization", "config": {"beta_constraint": null, "gamma_initializer": {"class_name": "Ones", "config": {}}, "moving_mean_initializer": {"class_name": "Zeros", "config": {}}, "name": "BatchNorm47", "epsilon": 0.001, "trainable": true, "moving_variance_initializer": {"class_name": "Ones", "config": {}}, "beta_initializer": {"class_name": "Zeros", "config": {}}, "scale": true, "axis": -1, "gamma_constraint": null, "gamma_regularizer": null, "beta_regularizer": null, "momentum": 0.99, "center": true}, "inbound_nodes": [[["ConvolutionDepthwise22", 0, 0, {}]]], "name": "BatchNorm47"}, {"class_name": "Activation", "config": {"activation": "relu", "trainable": true, "name": "ReLU26"}, "inbound_nodes": [[["BatchNorm47", 0, 0, {}]]], "name": "ReLU26"}, {"class_name": "Concatenate", "config": {"trainable": true, "name": "Concat20", "axis": -1}, "inbound_nodes": [[["Concat19", 0, 0, {}], ["ReLU26", 0, 0, {}]]], "name": "Concat20"}, {"class_name": "Conv2D", "config": {"kernel_constraint": null, "kernel_initializer": {"class_name": "VarianceScaling", "config": {"distribution": "normal", "scale": 1.0, "seed": null, "mode": "fan_avg"}}, "name": "Convolution28", "bias_regularizer": null, "bias_constraint": null, "activation": "linear", "trainable": true, "data_format": "channels_last", "padding": "valid", "strides": [1, 1], "dilation_rate": [1, 1], "kernel_regularizer": null, "filters": 80, "bias_initializer": {"class_name": "Constant", "config": {"value": 0}}, "use_bias": false, "activity_regularizer": null, "kernel_size": [1, 1]}, "inbound_nodes": [[["Concat20", 0, 0, {}]]], "name": "Convolution28"}, {"class_name": "BatchNormalization", "config": {"beta_constraint": null, "gamma_initializer": {"class_name": "Ones", "config": {}}, "moving_mean_initializer": {"class_name": "Zeros", "config": {}}, "name": "BatchNorm48", "epsilon": 0.001, "trainable": true, "moving_variance_initializer": {"class_name": "Ones", "config": {}}, "beta_initializer": {"class_name": "Zeros", "config": {}}, "scale": true, "axis": -1, "gamma_constraint": null, "gamma_regularizer": null, "beta_regularizer": null, "momentum": 0.99, "center": true}, "inbound_nodes": [[["Convolution28", 0, 0, {}]]], "name": "BatchNorm48"}, {"class_name": "DepthwiseConv2D", "config": {"use_bias": false, "trainable": true, "name": "ConvolutionDepthwise23", "bias_regularizer": null, "bias_constraint": null, "activation": "linear", "depth_multiplier": 1, "depthwise_constraint": null, "data_format": "channels_last", "padding": "same", "strides": [1, 1], "dilation_rate": [1, 1], "depthwise_initializer": {"class_name": "VarianceScaling", "config": {"distribution": "normal", "scale": 1.0, "seed": null, "mode": "fan_avg"}}, "bias_initializer": {"class_name": "Constant", "config": {"value": 0}}, "depthwise_regularizer": null, "activity_regularizer": null, "kernel_size": [3, 3]}, "inbound_nodes": [[["BatchNorm48", 0, 0, {}]]], "name": "ConvolutionDepthwise23"}, {"class_name": "BatchNormalization", "config": {"beta_constraint": null, "gamma_initializer": {"class_name": "Ones", "config": {}}, "moving_mean_initializer": {"class_name": "Zeros", "config": {}}, "name": "BatchNorm49", "epsilon": 0.001, "trainable": true, "moving_variance_initializer": {"class_name": "Ones", "config": {}}, "beta_initializer": {"class_name": "Zeros", "config": {}}, "scale": true, "axis": -1, "gamma_constraint": null, "gamma_regularizer": null, "beta_regularizer": null, "momentum": 0.99, "center": true}, "inbound_nodes": [[["ConvolutionDepthwise23", 0, 0, {}]]], "name": "BatchNorm49"}, {"class_name": "Activation", "config": {"activation": "relu", "trainable": true, "name": "ReLU27"}, "inbound_nodes": [[["BatchNorm49", 0, 0, {}]]], "name": "ReLU27"}, {"class_name": "Concatenate", "config": {"trainable": true, "name": "Concat21", "axis": -1}, "inbound_nodes": [[["Concat20", 0, 0, {}], ["ReLU27", 0, 0, {}]]], "name": "Concat21"}, {"class_name": "Conv2D", "config": {"kernel_constraint": null, "kernel_initializer": {"class_name": "VarianceScaling", "config": {"distribution": "normal", "scale": 1.0, "seed": null, "mode": "fan_avg"}}, "name": "Convolution29", "bias_regularizer": null, "bias_constraint": null, "activation": "linear", "trainable": true, "data_format": "channels_last", "padding": "valid", "strides": [1, 1], "dilation_rate": [1, 1], "kernel_regularizer": null, "filters": 80, "bias_initializer": {"class_name": "Constant", "config": {"value": 0}}, "use_bias": false, "activity_regularizer": null, "kernel_size": [1, 1]}, "inbound_nodes": [[["Concat21", 0, 0, {}]]], "name": "Convolution29"}, {"class_name": "BatchNormalization", "config": {"beta_constraint": null, "gamma_initializer": {"class_name": "Ones", "config": {}}, "moving_mean_initializer": {"class_name": "Zeros", "config": {}}, "name": "BatchNorm50", "epsilon": 0.001, "trainable": true, "moving_variance_initializer": {"class_name": "Ones", "config": {}}, "beta_initializer": {"class_name": "Zeros", "config": {}}, "scale": true, "axis": -1, "gamma_constraint": null, "gamma_regularizer": null, "beta_regularizer": null, "momentum": 0.99, "center": true}, "inbound_nodes": [[["Convolution29", 0, 0, {}]]], "name": "BatchNorm50"}, {"class_name": "DepthwiseConv2D", "config": {"use_bias": false, "trainable": true, "name": "ConvolutionDepthwise24", "bias_regularizer": null, "bias_constraint": null, "activation": "linear", "depth_multiplier": 1, "depthwise_constraint": null, "data_format": "channels_last", "padding": "same", "strides": [1, 1], "dilation_rate": [1, 1], "depthwise_initializer": {"class_name": "VarianceScaling", "config": {"distribution": "normal", "scale": 1.0, "seed": null, "mode": "fan_avg"}}, "bias_initializer": {"class_name": "Constant", "config": {"value": 0}}, "depthwise_regularizer": null, "activity_regularizer": null, "kernel_size": [3, 3]}, "inbound_nodes": [[["BatchNorm50", 0, 0, {}]]], "name": "ConvolutionDepthwise24"}, {"class_name": "BatchNormalization", "config": {"beta_constraint": null, "gamma_initializer": {"class_name": "Ones", "config": {}}, "moving_mean_initializer": {"class_name": "Zeros", "config": {}}, "name": "BatchNorm51", "epsilon": 0.001, "trainable": true, "moving_variance_initializer": {"class_name": "Ones", "config": {}}, "beta_initializer": {"class_name": "Zeros", "config": {}}, "scale": true, "axis": -1, "gamma_constraint": null, "gamma_regularizer": null, "beta_regularizer": null, "momentum": 0.99, "center": true}, "inbound_nodes": [[["ConvolutionDepthwise24", 0, 0, {}]]], "name": "BatchNorm51"}, {"class_name": "Activation", "config": {"activation": "relu", "trainable": true, "name": "ReLU28"}, "inbound_nodes": [[["BatchNorm51", 0, 0, {}]]], "name": "ReLU28"}, {"class_name": "Concatenate", "config": {"trainable": true, "name": "Concat22", "axis": -1}, "inbound_nodes": [[["Concat21", 0, 0, {}], ["ReLU28", 0, 0, {}]]], "name": "Concat22"}, {"class_name": "Conv2D", "config": {"kernel_constraint": null, "kernel_initializer": {"class_name": "VarianceScaling", "config": {"distribution": "normal", "scale": 1.0, "seed": null, "mode": "fan_avg"}}, "name": "Convolution30", "bias_regularizer": null, "bias_constraint": null, "activation": "linear", "trainable": true, "data_format": "channels_last", "padding": "valid", "strides": [1, 1], "dilation_rate": [1, 1], "kernel_regularizer": null, "filters": 64, "bias_initializer": {"class_name": "Constant", "config": {"value": 0}}, "use_bias": false, "activity_regularizer": null, "kernel_size": [1, 1]}, "inbound_nodes": [[["Concat22", 0, 0, {}]]], "name": "Convolution30"}, {"class_name": "BatchNormalization", "config": {"beta_constraint": null, "gamma_initializer": {"class_name": "Ones", "config": {}}, "moving_mean_initializer": {"class_name": "Zeros", "config": {}}, "name": "BatchNorm52", "epsilon": 0.001, "trainable": true, "moving_variance_initializer": {"class_name": "Ones", "config": {}}, "beta_initializer": {"class_name": "Zeros", "config": {}}, "scale": true, "axis": -1, "gamma_constraint": null, "gamma_regularizer": null, "beta_regularizer": null, "momentum": 0.99, "center": true}, "inbound_nodes": [[["Convolution30", 0, 0, {}]]], "name": "BatchNorm52"}, {"class_name": "Activation", "config": {"activation": "relu", "trainable": true, "name": "ReLU29"}, "inbound_nodes": [[["BatchNorm52", 0, 0, {}]]], "name": "ReLU29"}, {"class_name": "Conv2D", "config": {"kernel_constraint": null, "kernel_initializer": {"class_name": "VarianceScaling", "config": {"distribution": "uniform", "scale": 1.0, "seed": null, "mode": "fan_avg"}}, "name": "conv2d_1", "bias_regularizer": null, "bias_constraint": null, "activation": "softmax", "trainable": true, "data_format": "channels_last", "padding": "same", "strides": [1, 1], "dilation_rate": [1, 1], "kernel_regularizer": null, "filters": 2, "bias_initializer": {"class_name": "Zeros", "config": {}}, "use_bias": true, "activity_regularizer": null, "kernel_size": [3, 3]}, "inbound_nodes": [[["ReLU29", 0, 0, {}]]], "name": "conv2d_1"}, {"class_name": "Conv2D", "config": {"kernel_constraint": null, "kernel_initializer": {"class_name": "VarianceScaling", "config": {"distribution": "uniform", "scale": 1.0, "seed": null, "mode": "fan_avg"}}, "name": "conv2d_2", "bias_regularizer": null, "bias_constraint": null, "activation": "linear", "trainable": true, "data_format": "channels_last", "padding": "same", "strides": [1, 1], "dilation_rate": [1, 1], "kernel_regularizer": null, "filters": 6, "bias_initializer": {"class_name": "Zeros", "config": {}}, "use_bias": true, "activity_regularizer": null, "kernel_size": [3, 3]}, "inbound_nodes": [[["ReLU29", 0, 0, {}]]], "name": "conv2d_2"}, {"class_name": "Concatenate", "config": {"trainable": true, "name": "concatenate_1", "axis": -1}, "inbound_nodes": [[["conv2d_1", 0, 0, {}], ["conv2d_2", 0, 0, {}]]], "name": "concatenate_1"}], "input_layers": [["input_1", 0, 0]], "output_layers": [["concatenate_1", 0, 0]], "name": "model_1"}, "backend": "tensorflow"}